model/UT_HAR_data_GRU_Model.pth (torch, 123911 bytes, 6 tensors)

gru.weight_ih_l0 f4 [192, 90]
0	0x3e36ea61	0.17862846
1	0x3c3f023b	0.011658247
2	0xbd0c3deb	-0.034238737
3	0xbd19636f	-0.037448343
4	0xbd9d0a0b	-0.07667931
5	0x3df36964	0.11885336
6	0x3d07974c	0.033103272
7	0xbcc291ea	-0.023751218
8	0xbbeade1c	-0.007167591
9	0xbd205305	-0.039141674
10	0xbd4430a9	-0.04789797
11	0x3d09e15a	0.033662178
12	0xbdbfed44	-0.09371427
13	0x3cabbf61	0.02096528
14	0xbe3189d7	-0.17337738
15	0xbe05995f	-0.13046788
16	0xbd0e744b	-0.034778874
17	0x3c808f11	0.01569322
18	0xbdef4e93	-0.11684909
19	0xbe2a5a13	-0.16635923
20	0xbc15ded6	-0.0091473665
21	0xbde1c116	-0.11023156
22	0x3daf6733	0.085646056
23	0x3e172513	0.14760236
24	0xbc229fd9	-0.009925806
25	0x3e176a54	0.14786655
26	0x3dd01e5f	0.10162043
27	0x3e62e733	0.22158508
28	0x3ed9b1b5	0.42518392
29	0x3ec80447	0.39065763
30	0x3dbcf03d	0.09225509
31	0x3d93f80c	0.072250456
32	0x3e291731	0.16512753
33	0xbcbe3685	-0.023219356
34	0xbd83e078	-0.064392984
35	0x3d0fdf23	0.03512491
36	0x3d29d433	0.041462135
37	0xbdbb62bc	-0.091496915
38	0xbd1eaa2e	-0.038736515
39	0x3d4b0747	0.049567487
40	0xbde5802f	-0.1120609
41	0xbdc4c441	-0.09607745
42	0xbe14e6ed	-0.14541216
43	0xbdcbee96	-0.09957616
44	0xbb2a3dc1	-0.002597675
45	0xbc5b3c67	-0.0133811
46	0x3d5fd587	0.054646995
47	0xbd1b40e5	-0.037903685
48	0xbcd7c1c7	-0.026337517
49	0xbe276d11	-0.163502
50	0xbc191939	-0.009344392
51	0x3d4d27d4	0.05008681
52	0xbe0e7408	-0.1391145
53	0xbdcdeb04	-0.10054591
54	0x3cdaa69b	0.026690772
55	0x3e4134d0	0.18867803
56	0x3cee92b5	0.02912269
57	0x3d632a00	0.055459976
58	0x3cc4b70d	0.024013067
59	0x3c359c9c	0.011084702
60	0x3e1efab6	0.15525326
61	0x3dffa4e2	0.12482621
62	0x3e1cd42e	0.15315315
63	0x3e082ea2	0.13299039
64	0x3dd6ab2d	0.10481868
65	0x3ddefff2	0.108886614
66	0x3e7cbc98	0.24681318
67	0x3e48021d	0.19532056
68	0x3e80d6e8	0.2516396
69	0x3e5357ac	0.20638913
70	0x3e33d7b6	0.17562756
71	0x3d985a0e	0.074390516
72	0x3c839b86	0.01606537
73	0x3e16c1e2	0.14722398
74	0xbd5b791e	-0.053582303
75	0x3e436a37	0.19083486
76	0x3dd4cc8d	0.103905775
77	0x3dfd7d83	0.12377455
78	0x3e480f76	0.19537148
79	0x3e35311a	0.17694512
80	0x3dc770dd	0.09738324
81	0x3e5509e5	0.20804556
82	0x3e88fadc	0.2675389
83	0x3e640f6e	0.22271511
84	0x3ddda455	0.108223595
85	0x3d4b6849	0.04966
86	0x3e373e61	0.1789489
87	0x3e362a08	0.17789471
88	0x3e3d41e6	0.1848217
89	0x3e504c6a	0.2034165
90	0xbe110074	-0.14160329
91	0xbe83e610	-0.2576146
92	0xbe625d8d	-0.22106
93	0xbc1185b7	-0.008881978
94	0xbdbe07e0	-0.09278846
95	0xbe401cd3	-0.18760996
96	0x3cb2c21f	0.02182108
97	0x3dcd4618	0.10023135
98	0x3e13bacc	0.14426726
99	0xbd2bdb78	-0.04195735
100	0x3db6dfa0	0.08929372
101	0x3dd2148c	0.10257825
102	0xbd5df715	-0.054190714
103	0x3c5c91de	0.013462512
104	0xbdc56ac9	-0.09639508
105	0xbcf2a02c	-0.029617392
106	0x3e0b96fc	0.13631815
107	0x3e1df10f	0.15423988
108	0xbd931b55	-0.071829475
109	0x3cc3db84	0.023908384
110	0xbb9c4134	-0.004768515
111	0xbd1282d5	-0.035769302
112	0xbe226aec	-0.158611
113	0xbda5abf9	-0.08089442
114	0xbe5eb789	-0.217497
115	0xbe40d12f	-0.18829797
116	0xbdfe8b29	-0.124288864
117	0xbd1d9b02	-0.038477905
118	0x3a89492a	0.0010474075
119	0xbd9eda68	-0.077565014
120	0x3e45a12c	0.19299763
121	0x3b92cb10	0.0044797733
122	0x3e81d5ec	0.25358522
123	0x3d027f08	0.031859428
124	0x3de5840c	0.112068266
125	0xbba40e95	-0.005006621
126	0x3dc05b8b	0.093924604
127	0x3d9271f2	0.071506396
128	0x3d426db5	0.047467906
129	0xbde3a9fc	-0.11116406
130	0x3d734a3b	0.059396964
131	0xbe252869	-0.16128697
132	0xbd849e10	-0.064754605
133	0xbd4e6480	-0.050388813
134	0xbe0350c1	-0.12823774
135	0xbd332569	-0.04373685
136	0xbc6fb9c8	-0.014631696
137	0xbd410706	-0.04712584
138	0x3d427758	0.047477096
139	0xbcc7ebb7	-0.02440439
140	0xbd9fa093	-0.07794299
141	0x3deb2214	0.11481109
142	0x3c458fa8	0.012058176
143	0x3cc916cd	0.024547005
144	0xbe14396c	-0.1447503
145	0xbdff5ed4	-0.12469259
146	0xbd278944	-0.04090239
147	0x3e0f6823	0.14004569
148	0x3e11fe09	0.14257063
149	0x3e6d5ee2	0.23180726
150	0xbbbba51d	-0.00572647
151	0xbe1da8e7	-0.15396462
152	0xbb322240	-0.002718106
153	0xbd84e647	-0.064892344
154	0xbdded4de	-0.10880445
155	0x3c124c98	0.008929394
156	0xbe0363d1	-0.12831046
157	0x3d8e5d87	0.06951433
158	0xbcfbcba9	-0.030736761
159	0x3b0dba92	0.0021626097
160	0x3c656d0f	0.014003052
161	0x3ca792ae	0.020455685
162	0xbd90c5d1	-0.070689805
163	0xbc714334	-0.014725495
164	0x3d817d1b	0.0632269
165	0xbe179fc9	-0.14807047
166	0xbcd48adf	-0.025945125
167	0x3c26224b	0.010140012
168	0x3dba7a68	0.091053784
169	0x3d819362	0.06326939
170	0xbd3516da	-0.044211246
171	0xbc834b39	-0.01602708
172	0xbdc51d61	-0.09624744
173	0x3da77bab	0.08177885
174	0x3d699e18	0.057035536
175	0xbd7dcf91	-0.06196553
176	0x3e119976	0.14218697
177	0x3cb0efb9	0.021598684
178	0xbd840510	-0.06446278
179	0x3c9f68c0	0.019459128
180	0xbad7ca48	-0.0016463483
181	0x39321794	0.00016984186
182	0xbe849345	-0.25893608
183	0xbe5db064	-0.21649319
184	0xbe7338a9	-0.23752083
185	0xbd887b2a	-0.06664117
186	0xbe0cd38e	-0.13752577
187	0xbde7d3c2	-0.113196865
188	0xbe322476	-0.17396721
189	0xbdb2bfe1	-0.08728004
190	0xbdbb1f3a	-0.09136815
191	0xbe5ed1f9	-0.21759786
192	0xbe9523d8	-0.2912891
193	0xbd553266	-0.052050017
194	0xbe4ac9b6	-0.19803509
195	0xbe28a8cd	-0.16470642
196	0xbdd40540	-0.10352564
197	0xbe6697b6	-0.2251881
198	0xbe5b2973	-0.2140253
199	0x3d7fae21	0.06242192
200	0xbe253b4b	-0.161359
201	0xbd98c12c	-0.074587196
202	0xbd7170ed	-0.058945585
203	0x3cf0eb8a	0.029409189
204	0xbd74e074	-0.059784368
205	0xbe0c4363	-0.13697581
206	0xbdd0849b	-0.101815425
207	0x3d8e2cab	0.069421135
208	0xbcf090c5	-0.029365906
209	0x3cf14c16	0.029455226
210	0x3d40c944	0.04706694
211	0xbd22b107	-0.039719608
212	0xbdbfff35	-0.09374849
213	0x3cdffbfb	0.027341833
214	0x3d8b1c8c	0.06792554
215	0x3d903bcc	0.07042655
216	0x3d1050dd	0.035233367
217	0xbd79b8ec	-0.06096737
218	0xbc87612f	-0.016525833
219	0x3d9fe74b	0.078077875
220	0xbcfaec87	-0.030630363
221	0xbda41f36	-0.080137655
222	0xbe5503e4	-0.20802265
223	0xbe256c21	-0.16154529
224	0xbe573fa0	-0.21020365
225	0xbd13387d	-0.035942543
226	0xbe017c63	-0.12645106
227	0xbd1af21d	-0.037828553
228	0xbcd4f8b3	-0.025997495
229	0x3d946519	0.07245845
230	0x3afa3d43	0.0019091744
231	0xbd60b4fb	-0.054860096
232	0x3de3c104	0.11120799
233	0xbda99da3	-0.0828202
234	0x3d09aa4f	0.033609685
235	0x3badecd1	0.0053077717
236	0x3e377475	0.17915519
237	0x3e73d45a	0.23811474
238	0x3e1e1b92	0.15440205
239	0x3e0077d8	0.12545717
240	0xbead0ea1	-0.33800223
241	0xbe8ddf40	-0.2770939
242	0xbdb63596	-0.088969395
243	0xbe58d682	-0.21175578
244	0xbe1c6a60	-0.15274954
245	0xbde61f58	-0.11236447
246	0xbda7fcec	-0.08202538
247	0xbe37fbd8	-0.17967165
248	0xbbb246ff	-0.0054405923
249	0xbde4e62d	-0.11176715
250	0xbdcb2be4	-0.09920481
251	0xbe360c5c	-0.17778152
252	0xbe23a0c9	-0.15979303
253	0xbddeb553	-0.108744286
254	0xbdb9a80e	-0.09065257
255	0xbd40c5ee	-0.04706376

gru.weight_hh_l0 f4 [192, 64]
0	0x3defa18d	0.11700735
1	0xbdee5995	-0.1163818
2	0xbecffab4	-0.4062096
3	0xbc4073df	-0.011746376
4	0xbe9b8c58	-0.3038051
5	0xbe6a0fac	-0.22857541
6	0x3e4a7519	0.19771232
7	0x3e14c983	0.14529996
8	0xbdc70d87	-0.09719377
9	0xbeb4f293	-0.3534132
10	0x3df28d17	0.11843317
11	0x3e9b4991	0.30329564
12	0x3db365d8	0.087596595
13	0xbcb58345	-0.02215732
14	0x3e739904	0.2378884
15	0xbe82c0ef	-0.25537822
16	0xbe75703a	-0.23968592
17	0x3d8c37b5	0.06846563
18	0x3e3a2088	0.18176472
19	0xbe7c2246	-0.2462245
20	0x3db05af6	0.086110994
21	0xbe4631c1	-0.19354917
22	0x3e7b9603	0.24568944
23	0xbdca018b	-0.098635755
24	0xbdb0e8ea	-0.08638175
25	0x3da6cafc	0.08144185
26	0xbd38d77b	-0.045127373
27	0x3e6ecf05	0.23321159
28	0x3eb706eb	0.35747465
29	0xbe33147d	-0.17488284
30	0x3f0c0afc	0.5470426
31	0xbe85bd7c	-0.26121128
32	0x3ba18b09	0.0049299044
33	0x3e9aaadd	0.30208483
34	0x3ed837b3	0.42229995
35	0xbeb876f0	-0.36028242
36	0xbdae1b67	-0.0850132
37	0xbcaf1d0c	-0.021376155
38	0x3d840cbd	0.06447742
39	0x3ef3acd3	0.47592792
40	0xbe4781a0	-0.19483042
41	0x3eb43f91	0.35204747
42	0x3ec419bc	0.38300884
43	0x3e9a3caf	0.30124423
44	0xbec5dcd5	-0.38645044
45	0x3c8407ca	0.016116995
46	0x3ed6e352	0.41970307
47	0xbddf50a4	-0.10904053
48	0x3bfc6d6c	0.007703474
49	0xbdd4b34e	-0.10385762
50	0x3dfa30a9	0.122163124
51	0x3cdea175	0.027176598
52	0x3dc90bb4	0.09816685
53	0x3e6f90a2	0.23395017
54	0x3d94c98f	0.07265007
55	0x3e84a2d9	0.25905493
56	0x3df1e21e	0.118107066
57	0x3e34ab40	0.17643452
58	0x3e5df9b0	0.2167728
59	0xbecf199a	-0.4044922
60	0x3e9324db	0.28739056
61	0xbd5f1c30	-0.05447024
62	0xbc101125	-0.00879315
63	0x3dd0c2a7	0.10193377
64	0x3d8fac17	0.070152454
65	0xbe23f341	-0.16010763
66	0x3d98a866	0.074539945
67	0x3dd77e59	0.10522146
68	0xbdb26ea7	-0.087125115
69	0x3e3f4f46	0.18682584
70	0xbdf055b3	-0.11735096
71	0x3e9cf8cb	0.30658564
72	0x3e48ac92	0.1959708
73	0x3e2c7a48	0.16843522
74	0x3de41c7a	0.11138244
75	0xbddd980f	-0.108200185
76	0x3ef651d8	0.48109317
77	0x3eae884b	0.34088358
78	0xbe939c7f	-0.28830335
79	0xbf12803a	-0.5722691
80	0xbc4ee91d	-0.012628821
81	0xbecd8a25	-0.40144458
82	0xbe8f0a06	-0.27937335
83	0xbe9f80df	-0.31153008
84	0x3e20a6af	0.15688585
85	0xbd9d60af	-0.076844566
86	0xbdcebac6	-0.10094218
87	0xbe4e2e9e	-0.2013497
88	0xbe4b3708	-0.19845212
89	0x3bb7fab1	0.0056146015
90	0x3ea4ec1a	0.3221138
91	0x3dae5a45	0.08513311
92	0xbde64ef2	-0.112455264
93	0x3d56c2e1	0.052431945
94	0x3f06c62b	0.5264613
95	0x3cc4ddca	0.024031539
96	0xbeb04ed6	-0.34435147
97	0xbec03540	-0.37540627
98	0xbe4a19a8	-0.1973635
99	0xbe78c48e	-0.2429373
100	0xbe983d35	-0.29734197
101	0xbe40f58e	-0.18843672
102	0xbe8f8f67	-0.28039095
103	0xbdd9c40c	-0.10633096
104	0x3c2bd0eb	0.010486822
105	0xbeaaa987	-0.33332464
106	0xbf1b9e43	-0.60788363
107	0x3de63429	0.112404175
108	0xbe0f7c88	-0.14012349
109	0x3ac91597	0.0015341517
110	0xbdc1a04d	-0.09454403
111	0xbe4648e3	-0.19363742
112	0x3dd9df9e	0.10638355
113	0xbdc09a4b	-0.09404429
114	0x3e079f05	0.13244255
115	0x3e55a20f	0.20862602
116	0x3e9c9b5c	0.3058728
117	0xbca81e65	-0.020522306
118	0xbee3b3a1	-0.44472983
119	0xbe9f8ba3	-0.31161222
120	0x3e4dfaf3	0.20115261
121	0x3e287cd9	0.16453876
122	0x3e8b3e56	0.27195996
123	0xbcb85c64	-0.022504993
124	0xbd24c86d	-0.040230203
125	0x3eb782e1	0.3584204
126	0xbe1d1064	-0.15338284
127	0xbe0b1806	-0.13583383
128	0x3e7e74f2	0.24849299
129	0xbdbec03a	-0.09314008
130	0xbeb03888	-0.3441813
131	0xbd7e83d5	-0.062137444
132	0x3e9eb7fa	0.30999738
133	0x3e22a506	0.15883264
134	0x3ef69109	0.48157528
135	0x3cca0c70	0.024664134
136	0xbd3412d3	-0.043963265
137	0x3e11702e	0.1420295
138	0xbcc8da0a	-0.024518032
139	0xbdb196fe	-0.086713776
140	0x3e90eb9d	0.2830476
141	0xbcef68a1	-0.029224696
142	0xbc113df5	-0.008864869
143	0x3e4ce449	0.20008959
144	0x3dc2f4c7	0.09519344
145	0xbd5bfd1e	-0.05370819
146	0xbcbfd049	-0.023414748
147	0xbd44ccbe	-0.04804682
148	0xbde58c02	-0.11208345
149	0x3d88ceba	0.06680055
150	0x3e3a8db1	0.18218113
151	0xbde19132	-0.11014022
152	0x3c429237	0.011875681
153	0x3e0644d6	0.13112196
154	0x3bb1c457	0.005425017
155	0xbe3812a9	-0.17975868
156	0x3e586bb6	0.21134838
157	0xbe8ff51c	-0.2811669
158	0xbe394a01	-0.18094636
159	0x3ddc8f17	0.1076948
160	0x3e601de7	0.21886407
161	0x3e6f8fbc	0.23394674
162	0x3e188a70	0.1489656
163	0x3d8de793	0.06928935
164	0x3e058940	0.13040638
165	0x3efb1d4b	0.49045786
166	0x3e4f0c5a	0.20219555
167	0x3df4d287	0.119542174
168	0xbce58428	-0.028017119
169	0x3e065a61	0.13120414
170	0x3d9a32d9	0.0752923
171	0x3dbfa0be	0.09356831
172	0x3e113bd5	0.1418298
173	0xbdc6dd9a	-0.09710236
174	0x3d75d8ab	0.060021084
175	0x3d8293ca	0.06375845
176	0xbd350538	-0.04419443
177	0x3e160fc6	0.14654455
178	0xbd80e669	-0.06293947
179	0xbe90ea39	-0.28303698
180	0x3de5009c	0.11181757
181	0xbd538eca	-0.051649846
182	0x3f0a2aac	0.5397136
183	0xbd0e3c56	-0.03472551
184	0xbe8757ca	-0.26434165
185	0x3e91100b	0.28332552
186	0x3e8133fa	0.25234967
187	0x3dff969e	0.124799
188	0xbe5c2802	-0.21499637
189	0xbe090fc2	-0.13384917
190	0xbdd60737	-0.10450595
191	0x3e73343b	0.23750393
192	0x3eec6435	0.46170202
193	0xbdddea04	-0.108356506
194	0xbdc17af7	-0.09447282
195	0xbeda3ec7	-0.4262602
196	0x3d0be1b9	0.034150813
197	0xbe21b767	-0.15792619
198	0xbe40c288	-0.18824208
199	0x3cce04b2	0.025148723
200	0x3d4b0789	0.049567733
201	0xbe02a383	-0.12757687
202	0x3e1c3249	0.15253557
203	0x3ed5155b	0.41617855
204	0xbda08b85	-0.07839111
205	0x3d23dde5	0.040006537
206	0x3e70dc2d	0.2352149
207	0xbe37d664	-0.17952877
208	0xbd24f2e3	-0.040270697
209	0x3ed2acd0	0.4114747
210	0x3d560707	0.052252796
211	0xbdeecb2d	-0.116598465
212	0xbe292bd1	-0.16520621
213	0xbea371ca	-0.31922752
214	0x3de8c07c	0.113648385
215	0x3e0f8b67	0.14018022
216	0x3e874c02	0.26425177
217	0x3ea7abc9	0.3274825
218	0x3e634cfd	0.22197337
219	0xbe678568	-0.22609484
220	0x3e5a9e98	0.21349561
221	0xbcd491a8	-0.02594836
222	0x3e8e795b	0.27826962
223	0x3e3fee05	0.18743141
224	0xbd97f86c	-0.074204296
225	0xbdd3868d	-0.10328398
226	0xbd9a04cb	-0.075204454
227	0x3d32efbe	0.043685667
228	0x3e0df601	0.13863374
229	0x3e603a91	0.21897341
230	0x3e2001e6	0.15625724
231	0xbe236dd0	-0.15959859
232	0xbd88b02e	-0.066742286
233	0xbcf1d36a	-0.029519755
234	0xbe7d9316	-0.2476314
235	0x3e5b49a4	0.2141481
236	0x3e5aa113	0.21350507
237	0x3d64d11f	0.055863496
238	0xbdc13eec	-0.094358295
239	0xbe517486	-0.20454606
240	0x3e12878f	0.14309524
241	0xbd9d4e89	-0.07680995
242	0xbc3db5ac	-0.0115789585
243	0xbe0532da	-0.1300768
244	0xbdbd7321	-0.09250475
245	0x3e982f74	0.29723704
246	0x3e68eb84	0.22746092
247	0xbe1e17ae	-0.1543872
248	0x3e894d9c	0.26817024
249	0xbdabe4a9	-0.08393223
250	0xbe192cfc	-0.14958566
251	0xbecb4a95	-0.3970534
252	0xbe583348	-0.21113312
253	0x3bcc27c1	0.006230325
254	0x3e7c2377	0.24622904
255	0xbe055bbd	-0.13023277

gru.bias_ih_l0 f4 [192]
0	0xbd5e89a6	-0.05433049
1	0x3c6a84d5	0.014313896
2	0x3d481dd7	0.048856582
3	0x3dd9dbe0	0.10637641
4	0x3e10715a	0.1410574
5	0x3dc284ab	0.09497961
6	0x3e41322a	0.18866792
7	0x3dfdea23	0.12398174
8	0xbdde6e5b	-0.108608924
9	0x3c5b8236	0.013397744
10	0xbdb6da8f	-0.089284055
11	0xbdfc9df5	-0.123348154
12	0x3df778df	0.12083601
13	0xbc85282b	-0.016254505
14	0xbdd459fd	-0.103687264
15	0x3e09617e	0.13416097
16	0x3db62279	0.08893294
17	0x3c6f69b6	0.014612606
18	0x3db85c59	0.09001989
19	0x3d874570	0.06605041
20	0x3d801363	0.06253698
21	0xbe11cb7f	-0.14237784
22	0x3c389bb7	0.011267594
23	0x3c7127b1	0.014718936
24	0x3d9cde8a	0.076596335
25	0x3d384254	0.04498513
26	0xbcbe1f2f	-0.023208229
27	0x3daf33a8	0.085547745
28	0xbdbc9224	-0.092075616
29	0x3df964cf	0.12177431
30	0x3e6b62f8	0.22986972
31	0xbd967cef	-0.07348048
32	0x3e5ea058	0.21740854
33	0xbd60c563	-0.054875743
34	0x3dd0b7b3	0.10191288
35	0x3daf409d	0.08557246
36	0x3d5c83e9	0.053836737
37	0xbdb3e0fe	-0.08783148
38	0x3d713111	0.058884684
39	0x3d7230c6	0.059128545
40	0xba7bbcfe	-0.0009603052
41	0xbdfcdc5c	-0.12346718
42	0xbd76f26a	-0.060289778
43	0xbbfd24d9	-0.00772534
44	0x3db5a2d6	0.08868949
45	0x3d8f03f5	0.069831766
46	0xba80c848	-0.0009825313
47	0x3dd893fc	0.10575101
48	0x3d80de1f	0.06292366
49	0x3d581e2f	0.05276316
50	0x3e97c3ea	0.29641658
51	0xbd8220a8	-0.06353885
52	0x3dd26fbe	0.102752194
53	0x3dc7fd72	0.09765138
54	0x3d961062	0.073273435
55	0xbdc39169	-0.09549219
56	0xbb34ef9b	-0.0027608636
57	0x3e3c251d	0.18373533
58	0xbd116a3f	-0.035501715
59	0x3d9248cf	0.071427934
60	0x3db9c54a	0.09070833
61	0x3e00e6c2	0.12588027
62	0x3cefb30c	0.02926018
63	0xbd9c1d10	-0.07622731
64	0x3dea427d	0.11438463
65	0xbda661da	-0.081241325
66	0x3ceda3b9	0.029008733
67	0x3e1f3f38	0.1555146
68	0xbdcf765a	-0.10129996
69	0x3cacb6da	0.021083284
70	0x3de8c805	0.11366276
71	0x3dfc8c45	0.12331442
72	0xbde41fe4	-0.11138895
73	0x3d517023	0.051132333
74	0xbe892114	-0.2678305
75	0x3becc878	0.007226046
76	0x3e1c3796	0.1525558
77	0xbd4b1b76	-0.049586736
78	0x3d84031d	0.06445906
79	0xbda7ffc0	-0.08203077
80	0xbde601a4	-0.11230782
81	0x3dd8234d	0.10553608
82	0xbe9db2d7	-0.30800506
83	0xbe289909	-0.16464628
84	0x3c293a95	0.010328908
85	0xbd258e7d	-0.04041909
86	0x3e142361	0.14466621
87	0x3dce1cfd	0.10064123
88	0x3d17d11e	0.037064664
89	0x3d8e2df4	0.069423586
90	0x3d6eccc1	0.058300737
91	0x3d9c4c7f	0.07631778
92	0xbe24a8f3	-0.16080074
93	0xbb7ad0ae	-0.0038271355
94	0xbe13eb2f	-0.14445184
95	0xbd85758e	-0.065165624
96	0xbe8f631b	-0.280053
97	0xbd94e43b	-0.07270094
98	0x3cff0c13	0.031133687
99	0xbcd41fef	-0.025894133
100	0xbe8c22af	-0.2737021
101	0x3db55f60	0.08856082
102	0xbc94e500	-0.018175602
103	0xbd8fcee1	-0.07021881
104	0xbd527542	-0.051381357
105	0x3b5956ba	0.0033163265
106	0xbd5bc007	-0.05364993
107	0x3bb11cf3	0.0054050623
108	0xbe00d00a	-0.1257936
109	0xbd7ddc6f	-0.0619778
110	0xbdb4ed89	-0.08834369
111	0xbdbd5614	-0.09244934
112	0xbd631c17	-0.05544671
113	0x3d97963b	0.07401701
114	0x3cab7042	0.020927552
115	0xbcca9677	-0.02472995
116	0x3ce5ac72	0.02803633
117	0x3dd8289f	0.10554623
118	0xbddb18f9	-0.106981225
119	0xbe01cd8d	-0.12676068
120	0x3d21afe4	0.039474383
121	0xbcfa4c7a	-0.030554045
122	0xbe04aa9e	-0.1295571
123	0xbdb186fc	-0.08668324
124	0xbcefa2d8	-0.029252455
125	0xbcdde782	-0.02708793
126	0xbd45e748	-0.04831627
127	0xbe88b957	-0.26703903
128	0x3ca818e9	0.02051969
129	0xbd30cb64	-0.04316272
130	0xbcd5bfaf	-0.026092378
131	0xbd1d5931	-0.038415138
132	0x3c00202e	0.007820172
133	0x3d217b59	0.039424274
134	0x3db4977d	0.088179566
135	0x3e080269	0.1328217
136	0xbd81ebe8	-0.06343824
137	0xbe0baf0d	-0.13640995
138	0xbdde5970	-0.108569026
139	0x3d104d66	0.035230063
140	0x3d5a6e0f	0.053327616
141	0xbd8ffd23	-0.07030704
142	0xbd8d2ec6	-0.06893687
143	0xbde0dc4b	-0.109795175
144	0x3d872286	0.06598382
145	0x3c5b990d	0.013403189
146	0xbcf4ba7e	-0.029874083
147	0x3c70ec5a	0.014704788
148	0xbd80fffc	-0.06298825
149	0xbd5182dc	-0.051150188
150	0x3d7f30bb	0.062302332
151	0xbdb0bbeb	-0.086295925
152	0xbd026283	-0.03183223
153	0xbb6fbcd3	-0.0036581054
154	0x3e036dcf	0.12834857
155	0xbe1e5935	-0.15463717
156	0xbce21c5b	-0.027601412
157	0x3d79d4dd	0.060994018
158	0x3e19341e	0.14961287
159	0xbd499ca9	-0.04922167
160	0xbd0c2825	-0.034217972
161	0xbd836fe9	-0.064178295
162	0xbdb55a3b	-0.08855101
163	0x3da3248a	0.07965954
164	0xbd48f1b5	-0.049058635
165	0xbdd3d293	-0.10342898
166	0xbd6d6b0a	-0.05796341
167	0x3db017f6	0.0859832
168	0xbd5ad5d9	-0.053426597
169	0x3db10e02	0.0864525
170	0x3cdb429e	0.026765164
171	0x3b87f982	0.0041496167
172	0xbc8568b5	-0.01628528
173	0x3cdf6653	0.027270472
174	0xbd5ae06f	-0.053436693
175	0xbda6d186	-0.08145432
176	0xbd8d0d1d	-0.06887267
177	0x3d504ae3	0.050852668
178	0xbadf0482	-0.0017014893
179	0x3dc7294c	0.09724674
180	0x3d825efa	0.063657716
181	0x3c9e6042	0.019333009
182	0x3ce984fc	0.028505795
183	0xbdcbfa67	-0.0995987
184	0x3d99881b	0.07496663
185	0x3d8da0b0	0.06915414
186	0x3dea25d6	0.11432998
187	0x3d043c43	0.032284033
188	0x3bf30e5c	0.0074174833
189	0x3e03abfb	0.12858574
190	0x3ceed7ff	0.02915573
191	0x3d03b19c	0.032151803

gru.bias_hh_l0 f4 [192]
0	0xbd8f4784	-0.069960624
1	0x3d1fe11a	0.039033033
2	0xbdaa7016	-0.0832216
3	0x3d8668f0	0.06562984
4	0xbd2a0280	-0.04150629
5	0x3ce15b45	0.027509341
6	0x3debb840	0.11509752
7	0x3e497b4a	0.19675937
8	0xbc8569cc	-0.0162858
9	0x3e0092c5	0.12555988
10	0xbd2a90e7	-0.041642096
11	0xbe047eb7	-0.12938963
12	0xbcb1867b	-0.02167057
13	0x3d2157f9	0.039390538
14	0xbde7ae1f	-0.11312508
15	0xbd803395	-0.062598385
16	0x3d0122ee	0.031527452
17	0xbdfb5e4c	-0.12273845
18	0xbd78da12	-0.060754843
19	0x3df562bd	0.119817235
20	0xbd835619	-0.06412906
21	0x3d82df1c	0.06390211
22	0x3e022d05	0.12712486
23	0x3da660fb	0.08123966
24	0x3dad4a5a	0.08461447
25	0x3e35c3dc	0.17750496
26	0xbd6f1abb	-0.0583751
27	0xbcdc184d	-0.026867056
28	0xbc9b2ded	-0.018942798
29	0xbd3507e3	-0.044196974
30	0x3de860cd	0.11346588
31	0xbd41fc09	-0.0473595
32	0xbc915794	-0.017741956
33	0x3d880d48	0.06643158
34	0xbd245409	-0.040119205
35	0xbd94ee4b	-0.07272013
36	0xbd366d85	-0.04453804
37	0xbd3ac703	-0.04559995
38	0xbdc6d0e7	-0.09707814
39	0xbcf76433	-0.030199146
40	0x3df91d90	0.12163842
41	0xbe1a9378	-0.15095317
42	0xbcf6e06c	-0.03013631
43	0xbcae22f6	-0.021256905
44	0x3e59beb4	0.21264154
45	0x3d76a3c7	0.060214784
46	0x3e3d4e5a	0.1848692
47	0x3dfee547	0.12446075
48	0x3da2421b	0.07922765
49	0x3ca9985a	0.02070253
50	0x3e7c1899	0.24618758
51	0xbcd03dfc	-0.025420181
52	0x3d337315	0.043810923
53	0x3c204190	0.009781256
54	0xbd9f1ca1	-0.077691324
55	0xbd9cbbbc	-0.07652995
56	0x3d17b17c	0.037034497
57	0x3da65ce4	0.08123186
58	0xbc847f62	-0.016174022
59	0x3d069748	0.032859117
60	0x3b253055	0.002520581
61	0x3d1fdcec	0.039029047
62	0xbdaf6abb	-0.08565279
63	0x3dac7d22	0.08422305
64	0xbd807ade	-0.06273435
65	0xbd9eaf9c	-0.077483386
66	0xbdac8070	-0.08422935
67	0x3d65e1fc	0.05612372
68	0x3c816fbb	0.015800348
69	0x3ce87a41	0.028378608
70	0xbdcb628a	-0.09930904
71	0xbdc0cc52	-0.09413971
72	0xbe0a7d3a	-0.13524333
73	0xbce14d15	-0.027502576
74	0xbd9a53d7	-0.075355224
75	0xbd52ba72	-0.05144734
76	0xbd7e8004	-0.062133804
77	0x3deb019d	0.11474917
78	0xbe05d253	-0.13068514
79	0xbdf795cc	-0.12089118
80	0xbc169374	-0.009190429
81	0xbd0dbd98	-0.03460464
82	0xbe7e0e46	-0.24810132
83	0x3d508cf7	0.050915685
84	0x3bd02b7f	0.0063528414
85	0x3b196c36	0.0023410446
86	0x3e01fd93	0.12694387
87	0x3e40c083	0.18823437
88	0xbc894522	-0.016756598
89	0xbd822c13	-0.06356063
90	0xbd2653b1	-0.040607158
91	0xbdfa2409	-0.122139044
92	0xbd9063fc	-0.070503205
93	0xbd776252	-0.0603965
94	0xbe76f790	-0.24117875
95	0xbda3494a	-0.07972963
96	0xbe9f6cf1	-0.31137803
97	0xbd9c8f36	-0.07644503
98	0x3d6ce685	0.057837028
99	0xbcabba27	-0.020962788
100	0xbe0a3a49	-0.13498797
101	0xbd134ee1	-0.035963897
102	0x3dfc051d	0.12305663
103	0xbe404ae3	-0.18778567
104	0xbdb5a159	-0.08868665
105	0xbd86c159	-0.06579847
106	0x3cbbb6a3	0.022914236
107	0xbc8c55b9	-0.01713072
108	0xbcbf74c8	-0.023371115
109	0x3d678f00	0.05653286
110	0x3dd04702	0.10169794
111	0xbe0f9d94	-0.14024955
112	0x3dd2fb60	0.10301852
113	0x3dac656b	0.084177814
114	0x3d999c80	0.07500553
115	0x3d148930	0.036263645
116	0x3c9ab104	0.018883236
117	0x3e1429f0	0.14469123
118	0xbe15530c	-0.14582461
119	0xbcf5da22	-0.03001124
120	0xbde235c3	-0.110454105
121	0x3dcd4b91	0.10024179
122	0xbd87f174	-0.066378504
123	0xbd156118	-0.03646955
124	0xbe2294ac	-0.15877026
125	0x3daad9c2	0.08342315
126	0x3d815bdf	0.06316351
127	0xbdd93a07	-0.10606771
128	0xbd1d2c05	-0.03837206
129	0xbd59aca1	-0.053143147
130	0x3d258ead	0.04041927
131	0xbde3d758	-0.11125058
132	0xbd7466e0	-0.05966842
133	0xbe40c05a	-0.18823376
134	0xbce11247	-0.027474536
135	0x3e16bddf	0.14720868
136	0x3e10069c	0.14065021
137	0x3beae680	0.007168591
138	0xbcfe6ae4	-0.031056829
139	0xbe0c71e2	-0.13715318
140	0x3dc686d7	0.096936874
141	0x3c97d2a6	0.018533062
142	0xbcff4c86	-0.031164419
143	0xbe07cf69	-0.13262714
144	0xbdb368da	-0.08760233
145	0xbd22cc58	-0.03974566
146	0xbdfd556d	-0.12369809
147	0x3b6d8443	0.0036242164
148	0xbdd4a0c2	-0.103822246
149	0x3da6235b	0.08112212
150	0x3e05d3e4	0.13069111
151	0xbd0af3a5	-0.033923764
152	0x3d966f66	0.07345466
153	0xbcb969a6	-0.022633385
154	0x3e403854	0.18771487
155	0x3de78d08	0.113061965
156	0xbc967358	-0.018365547
157	0x3d96cbb6	0.073630735
158	0x3d035605	0.032064456
159	0xbd0561a5	-0.032563824
160	0x3d658090	0.05603081
161	0x3e32f0d2	0.17474678
162	0xbd1932b2	-0.037401862
163	0xbdf37dd2	-0.11889233
164	0x3e00e2b4	0.1258648
165	0xbd90b9e8	-0.07066709
166	0xbd2becf6	-0.04197403
167	0x3d6aae8e	0.057295375
168	0xbe268911	-0.16263224
169	0x3da78fb5	0.08181707
170	0x3d0c973d	0.03432392
171	0x3ca1fef2	0.019774888
172	0xbe383ad3	-0.1799119
173	0x3d7e1984	0.062036052
174	0x3d57fa0b	0.052728694
175	0xbcc87ab7	-0.024472577
176	0x3e0d0b75	0.13773902
177	0x3e15d37f	0.1463146
178	0x3da4eaa0	0.08052564
179	0x3cd620e4	0.02613873
180	0xbe5c0459	-0.21486033
181	0xbddd8072	-0.108155146
182	0x3dff2b59	0.1245944
183	0x3e4d59d4	0.20053798
184	0xbd20c27b	-0.03924797
185	0x3ce64fca	0.028114218
186	0x3e2e9d1d	0.17052121
187	0xbe7ed24c	-0.2488491
188	0x3c7a5641	0.015279354
189	0x3d83bffd	0.06433103
190	0x3c73b141	0.014873804
191	0xbe20fcc4	-0.15721422

fc.weight f4 [7, 64]
0	0x3f281fc5	0.65673476
1	0xbcff169f	-0.031138716
2	0xbd2d16c8	-0.042258054
3	0xbf17c2fd	-0.59281904
4	0x3e68e6f5	0.22744353
5	0xbeb9b6d8	-0.3627231
6	0x3da2f3a3	0.07956626
7	0x3e8a3d84	0.27000058
8	0xbf57a6d4	-0.84238935
9	0xbee993b1	-0.45620492
10	0xbe18fb61	-0.14939643
11	0xbdcb2ee2	-0.099210516
12	0x3e99e9b5	0.30061117
13	0xbefb5905	-0.49091354
14	0xbcfc5939	-0.030804263
15	0xbea4867f	-0.32133862
16	0x3f028d07	0.5099644
17	0x3e378eea	0.17925611
18	0x3f0bf64e	0.54672706
19	0xbf1b15e2	-0.60580266
20	0x3e02cb04	0.12772757
21	0xbf028ee7	-0.509993
22	0x3e8b8b95	0.2725493
23	0x3def07ac	0.11671385
24	0x3feda748	1.8566675
25	0x3edcc193	0.43116435
26	0x3e30d63d	0.17269225
27	0x3d5b092f	0.053475555
28	0x3d54866d	0.05188601
29	0x3ddfd843	0.109299205
30	0xbe4191b9	-0.18903245
31	0xbf061e0f	-0.52389616
32	0xbf0aabf8	-0.54168653
33	0xbe4f9662	-0.2027221
34	0x3eb9f7b0	0.36321783
35	0xbd97878a	-0.07398899
36	0x3db56267	0.088566594
37	0x3dbba544	0.09162381
38	0xbe7f8b8d	-0.24955578
39	0xbdd998a7	-0.10624819
40	0xbedab8e9	-0.427192
41	0xbe7029a6	-0.23453388
42	0xbeb5c26c	-0.35499895
43	0x3f2d98b7	0.6781115
44	0x3ea671ab	0.32508597
45	0x3f056cf5	0.5211938
46	0xbee0ca8b	-0.43904528
47	0xbeaec9c9	-0.34138325
48	0x3e4939de	0.19650981
49	0x3ddf0fdc	0.10891697
50	0x3df4d87c	0.119553536
51	0xbe34ae6b	-0.1764466
52	0x3e03a310	0.12855172
53	0x3f382b85	0.71941406
54	0x3eec9b95	0.4621245
55	0xbefd92e6	-0.49526137
56	0xbe5bc18b	-0.2146055
57	0x3df27bf6	0.1184005
58	0xbcaa47e6	-0.020786237
59	0xbe6fb309	-0.2340814
60	0xbea9388f	-0.33050963
61	0x3e0caf9f	0.13738869
62	0x3e960047	0.29297087
63	0xbe5e11f1	-0.21686532
64	0xbee59845	-0.44842735
65	0x3f109a4c	0.5648544
66	0xbef33a76	-0.4750554
67	0xbdb190e4	-0.08670214
68	0x3e52153a	0.2051591
69	0x3f04defe	0.5190276
70	0xbec254d4	-0.37955344
71	0xbe1b7350	-0.15180707
72	0xbf0d348e	-0.5515832
73	0xbe3ef5f8	-0.18648517
74	0x3de6c71a	0.11268444
75	0xbecb8d83	-0.39756402
76	0x3f313697	0.6922392
77	0x3f672b57	0.90300506
78	0xbd9e1da6	-0.07720499
79	0x3f2136db	0.6297433
80	0xbf0989e0	-0.53726006
81	0x3dab0eaf	0.0835241
82	0x3e91e338	0.28493667
83	0x3da53762	0.08067204
84	0xbe790fc8	-0.24322426
85	0x3ebeea2f	0.37288043
86	0xbf674f82	-0.90355694
87	0x3e1c3c48	0.1525737
88	0xbcff76a1	-0.031184496
89	0xbc1e2e72	-0.009654628
90	0xbece7de2	-0.40330416
91	0x3eae8dde	0.3409261
92	0xbce46ef2	-0.027884934
93	0xbe02a2a8	-0.12757361
94	0xbebdeeaa	-0.3709615
95	0xbe80aad6	-0.25130337
96	0xbe3ad083	-0.18243603
97	0xbf874fad	-1.057119
98	0xbf0a9189	-0.5412832
99	0x3ed56bbc	0.41683757
100	0x3d364409	0.044498477
101	0xbd18dbf0	-0.037319124
102	0xbe8a1d06	-0.26975268
103	0x3e1faac0	0.1559248
104	0xbd1626b3	-0.036658
105	0xbef68f31	-0.4815612
106	0x3e509a23	0.20371298
107	0xbe2a2d86	-0.16618928
108	0x3f35c1dd	0.70998937
109	0xbec73ae1	-0.3891211
110	0xbe981be3	-0.29708776
111	0x3db300b2	0.08740367
112	0x3e44146a	0.19148412
113	0xbcf97b7f	-0.030454395
114	0xbea60840	-0.3242817
115	0x3f534e25	0.82541114
116	0xbeaf8ff5	-0.34289518
117	0x3dd91b9f	0.106009714
118	0x3e6b8772	0.23000887
119	0xbf4ed52d	-0.8079403
120	0xbd6b4dbc	-0.05744718
121	0xbe53f28c	-0.20697993
122	0xbdc6a543	-0.0969949
123	0x3ee434cc	0.4457153
124	0xbf86c573	-1.0529007
125	0xbef9e516	-0.4880759
126	0xbe038cd5	-0.12846692
127	0xbef049f6	-0.46931428
128	0xbf5a957e	-0.85384357
129	0x3ed3a8d2	0.41339737
130	0x3e495443	0.1966105
131	0x3e94a8e7	0.29035112
132	0xbef7f25c	-0.48427093
133	0xbf731f38	-0.9496951
134	0xbd11cdc9	-0.035596643
135	0xbeb4cf0a	-0.35314208
136	0x3e681224	0.2266317
137	0x3f68b2db	0.9089791
138	0xbe4af4d1	-0.19819953
139	0x3e31f73f	0.17379473
140	0xbf185314	-0.5950177
141	0xbedd55f6	-0.43229645
142	0xbdc75938	-0.09733814
143	0xbea3580a	-0.31903106
144	0xbe4ea95e	-0.20181796
145	0x3edae4dd	0.42752734
146	0x3c2a8f14	0.010410089
147	0xbdd55a85	-0.10417656
148	0x3d9ce82f	0.07661473
149	0x3e9b56d9	0.30339697
150	0xbe8038d4	-0.25043356
151	0xbb094a8e	-0.002094898
152	0x3f0a79e1	0.5409222
153	0xbe41e18b	-0.18933694
154	0x3d9339e9	0.0718878
155	0x3ebdab04	0.37044537
156	0x3ed09e8f	0.4074597
157	0xbebe9bbf	-0.372282
158	0x3f35cef1	0.7101889
159	0xbeb6e46e	-0.35721153
160	0xbe6d9257	-0.23200355
161	0xbea509c4	-0.32234013
162	0x3efb4ac2	0.49080473
163	0x3e043684	0.12911421
164	0xbee4441d	-0.44583216
165	0xbda9f828	-0.08299285
166	0x3e983f84	0.2973596
167	0x3eb7471e	0.35796446
168	0xbedbf505	-0.42960373
169	0xbd4f95e5	-0.05068006
170	0x3d047cc4	0.03234555
171	0xbe62c9fd	-0.22147365
172	0x3d3ecc00	0.04658127
173	0x3da8b7af	0.0823816
174	0x3ec95d86	0.39329165
175	0x3db28b89	0.087180205
176	0x3db912c1	0.0903678
177	0xbe53def1	-0.20690514
178	0xbc1463bc	-0.009056982
179	0xbed8c170	-0.4233508
180	0x3e4eb568	0.20186388
181	0xbd4a9318	-0.049456686
182	0x3dc08678	0.09400648
183	0x3f72bd21	0.9481984
184	0xbf1ef106	-0.6208652
185	0x3d9958ff	0.07487678
186	0xbda59625	-0.080852784
187	0xbf72d914	-0.94862485
188	0x3f275fba	0.6538044
189	0x3e57c1b6	0.21069989
190	0xbdbc52c0	-0.09195471
191	0xbdb2b5d3	-0.087260865
192	0x3f39428f	0.72367185
193	0xbf008a22	-0.50210774
194	0x3e2e2fb1	0.1701038
195	0xbe19419b	-0.14966433
196	0xbe3787d2	-0.17922905
197	0xbee3e30d	-0.44509163
198	0xbebedc8b	-0.37277636
199	0x3e9ad9f5	0.30244413
200	0x3e8d9b29	0.2765744
201	0x3daae89b	0.08345147
202	0xbe9b5203	-0.30336007
203	0x3eccd5e6	0.40006942
204	0xbf1975ee	-0.5994557
205	0xbee2a8ec	-0.44269502
206	0x3ea0e03a	0.3142107
207	0x3e10a486	0.1412526
208	0x3f790172	0.9726783
209	0x3dec1deb	0.11529144
210	0xbf2a94e7	-0.66633457
211	0x3f0bf3f4	0.5466912
212	0x3e45e1a0	0.1932435
213	0xbeae59bc	-0.34052837
214	0x3e12ab32	0.14323118
215	0x3d8b9fbc	0.06817576
216	0xbf188cba	-0.5958973
217	0xbe4c4d6e	-0.19951412
218	0xbf474f2e	-0.77855194
219	0xbe2228e1	-0.15835907
220	0xbe0f0d2a	-0.13969865
221	0xbd23e2d2	-0.040011235
222	0xbdd543fa	-0.10413356
223	0xbdcd9171	-0.10037506
224	0x3f8a9bce	1.0828798
225	0xbf0111dc	-0.50417876
226	0xbf34e82a	-0.70666754
227	0xbf03e26a	-0.51517355
228	0xbe1b8e7b	-0.1519107
229	0xbef470bb	-0.47742257
230	0xbf3a300a	-0.7272955
231	0xbcc130eb	-0.023582896
232	0x3ef2fc01	0.4745789
233	0x3f1b4506	0.60652196
234	0xbeba34e2	-0.3636847
235	0xbd674461	-0.056461696
236	0xbe7932b6	-0.24335751
237	0xbeac9aa6	-0.33711737
238	0xbf3c0ced	-0.73457223
239	0x3c8288c8	0.015934363
240	0x3ec522de	0.38503164
241	0xbd30fa60	-0.043207526
242	0x3db4bf41	0.08825541
243	0x3eaec87a	0.34137326
244	0x3ea323ca	0.31863242
245	0xbed7cd79	-0.4214895
246	0xbe3057ca	-0.17220989
247	0x3ed64933	0.41852722
248	0xbe9a8bd2	-0.301848
249	0xbf22556d	-0.634116
250	0xbdccca8f	-0.099995725
251	0x3eda76ce	0.42668766
252	0xbe9b0e23	-0.30284223
253	0x3e2e3216	0.17011294
254	0x3f1e4676	0.61826265
255	0xbe21cec6	-0.15801534

fc.bias f4 [7]
0	0xbcf285ad	-0.029604757
1	0x3dfacda6	0.122462556
2	0xbdf29a3e	-0.118458256
3	0x3c6a6eb8	0.014308624
4	0xbe8349c6	-0.25642222
5	0x3e8498ce	0.2589783
6	0xbd82fa4f	-0.06395399
